autoencoder/autoencoder.pth (torch_old, 882001 bytes, 16 tensors)

encoder.0.weight f4 [128, 784]
6.358128e-18 6.358128e-18 6.358128e-18 6.358128e-18 6.358128e-18 6.358128e-18 6.358128e-18 6.358128e-18
6.358128e-18 6.358128e-18 6.358128e-18 6.358128e-18 6.358128e-18 6.358128e-18 6.358128e-18 6.358128e-18
6.358128e-18 6.358128e-18 6.358128e-18 6.358128e-18 6.358128e-18 6.358128e-18 6.358128e-18 6.358128e-18
6.358128e-18 6.358128e-18 6.358128e-18 6.358128e-18 6.358128e-18 6.358128e-18 6.358128e-18 6.358128e-18
6.358128e-18 6.358128e-18 6.358128e-18 6.358128e-18 6.358128e-18 6.3608514e-18 4.612993e-18 4.8692694e-18
1.0754749e-17 1.1426013e-17 7.890056e-18 4.925194e-18 3.7202287e-18 3.2139176e-18 1.5276118e-17 9.9791235e-18
6.358128e-18 6.358128e-18 6.358128e-18 6.358128e-18 6.358128e-18 6.358128e-18 6.358128e-18 6.358128e-18
6.358128e-18 6.358128e-18 6.358128e-18 6.358128e-18 6.358128e-18 6.358236e-18 6.3588997e-18 6.5575856e-18
6.5791303e-18 2.3405268e-18 1.1498231e-18 4.462564e-19 8.972607e-19 1.7357314e-18 2.3498193e-18 1.158453e-18
3.229401e-19 9.188244e-20 1.8314543e-19 3.426375e-18 2.4994997e-18 1.6377484e-18 3.0048252e-18 1.6877666e-18
3.846551e-18 6.3575853e-18 6.358128e-18 6.358128e-18 6.358128e-18 6.358128e-18 6.358128e-18 6.358128e-18
6.358128e-18 6.4236414e-18 6.4404464e-18 1.2061898e-17 5.035609e-18 5.982962e-19 1.6653618e-20 1.973574e-21
5.006592e-20 7.7213394e-20 1.4967737e-21 2.9971373e-22 2.2654362e-24 3.0935225e-25 2.0243445e-24 1.9011262e-23
1.3102197e-21 2.4662022e-20 2.0355166e-19 9.90808e-19 4.730305e-18 6.384142e-18 6.358128e-18 6.358128e-18
6.358128e-18 6.358128e-18 6.358128e-18 6.358128e-18 6.3639728e-18 6.4241295e-18 5.2630785e-18 4.5978946e-18
8.6258487e-19 1.0109317e-20 4.0902788e-23 2.1906177e-23 8.572475e-22 3.5297056e-25 2.55472e-30 3.5185818e-28
2.9509889e-25 6.8887594e-27 2.2132657e-28 1.0196388e-29 7.757133e-23 1.4228631e-20 1.0666073e-19 5.6712666e-20
6.8900743e-19 5.6795735e-18 6.6181856e-18 6.3755264e-18 6.358128e-18 6.358128e-18 3.562129e-18 6.3003005e-18
4.3375e-18 3.3111231e-18 3.2550287e-18 5.309073e-18 5.747847e-19 1.093768e-21 3.0580136e-23 1.3676838e-23
7.6392255e-26 1.4068126e-28 -8.559677e-35 1.630218e-38 5.357779e-33 1.1740486e-28 2.0385572e-24 2.4859367e-23
7.274854e-24 1.9018048e-21 5.3253206e-20 4.243793e-20 1.4560398e-19 7.421463e-18 6.7314825e-18 6.3483573e-18
6.358128e-18 6.358128e-18 6.196077e-18 5.899989e-18 3.1008871e-18 1.6873029e-18 1.7882338e-18 6.8501753e-19
1.4785676e-19 5.391186e-22 -8.914601e-23 -7.0914154e-24 6.7612094e-29 1.522888e-29 -3.8627315e-36 4.462269e-38
-3.7623177e-33 -3.4481134e-24 -9.6010724e-21 1.6324701e-19 7.794376e-21 -1.2407026e-21 -1.4474101e-19 -2.2323395e-19
-4.2386612e-20 2.1210571e-18 4.937066e-18 5.9936692e-18 6.358128e-18 6.396947e-18 6.715093e-18 5.797234e-18
2.7137223e-18 2.5726854e-18 1.9079998e-18 7.472184e-19 2.8643613e-20 -3.0947253e-23 -1.8791574e-24 -4.0321687e-30
2.7792193e-38 -9.602622e-39 -4.1038388e-35 1.3875486e-29 -6.2389937e-28 -8.046354e-21 -3.1703453e-18 1.1831219e-18
-1.5347796e-19 9.547391e-22 -9.419374e-21 -2.0968055e-19 2.5903577e-19 1.6373273e-18 4.0764168e-18 6.3184464e-18
6.358128e-18 6.54831e-18 7.242492e-18 6.3886463e-18 4.787573e-18 3.2427556e-18 5.724368e-18 1.4613844e-18
-1.9445082e-20 -3.425709e-24 -3.355633e-26 6.4549735e-37 -2.969932e-38 -2.933197e-35 1.4703074e-31 1.9077013e-30
9.724428e-26 -1.7240488e-21 -1.0115963e-18 -1.2186559e-17 -2.4496592e-18 -1.2710955e-20 -3.3012617e-20 -3.3629467e-19
-1.5304188e-18 8.679406e-19 3.955319e-18 6.3580282e-18 6.358128e-18 6.1921177e-18 6.620598e-18 6.266805e-18
00000000: d292 ea22 d292 ea22 d292 ea22 d292 ea22
00000010: d292 ea22 d292 ea22 d292 ea22 d292 ea22
00000020: d292 ea22 d292 ea22 d292 ea22 d292 ea22
00000030: d292 ea22 d292 ea22 d292 ea22 d292 ea22
00000040: d292 ea22 d292 ea22 d292 ea22 d292 ea22
00000050: d292 ea22 d292 ea22 d292 ea22 d292 ea22
00000060: d292 ea22 d292 ea22 d292 ea22 d292 ea22
00000070: d292 ea22 d292 ea22 d292 ea22 d292 ea22
00000080: d292 ea22 d292 ea22 d292 ea22 d292 ea22
00000090: d292 ea22 8bac ea22 7d30 aa22 f3a4 b322
000000a0: de63 4623 d2c5 5223 bc8b 1123 24b5 b522
000000b0: 9140 8922 3025 6d22 b7e5 8c23 1415 3823
000000c0: d292 ea22 d292 ea22 d292 ea22 d292 ea22
000000d0: d292 ea22 d292 ea22 d292 ea22 d292 ea22
000000e0: d292 ea22 d292 ea22 d292 ea22 d292 ea22
000000f0: d292 ea22 d793 ea22 1c9a ea22 a5ee f122
00000100: 21ba f222 4db3 2c22 17af a921 2eb6 0321
00000110: 8d69 8421 0a13 0022 d562 2d22 1ef5 aa21
00000120: 54a1 be20 87f3 d81f 4f38 5820 65d2 7c22
00000130: 376e 3822 63b0 f121 8bb7 5d22 0512 f921
00000140: a6e9 8d22 b28d ea22 d292 ea22 d292 ea22
00000150: d292 ea22 d292 ea22 d292 ea22 d292 ea22
00000160: d292 ea22 94fd ec22 4c9c ed22 b480 5e23
00000170: fbc7 b922 fc95 3021 fa49 9d1e 791e 151d
00000180: fc6d 6c1f a250 b61f a12f e21c 742a b51b
00000190: 9647 2f18 d27a bf16 46a0 1c18 9bdd b719
000001a0: abfe c51c 1ced e81e b74f 7020 ab37 9221
000001b0: 7884 ae22 8488 eb22 d292 ea22 d292 ea22
000001c0: d292 ea22 d292 ea22 d292 ea22 d292 ea22
000001d0: 06ca ea22 3002 ed22 5f2c c222 e3a1 a922
000001e0: 1297 7e21 a8f5 3e1e 33cb 451a 11dd d319
000001f0: 288b 811c 6b7a da16 7543 4f0e 4104 df11
00000200: 49a8 b616 2972 0814 4a48 8c11 acce 4e0f
00000210: 548e bb1a b862 861e 75d8 fb1f b4e8 851f
00000220: ee5b 4b21 0e8a d122 ff2a f422 2537 eb22
00000230: d292 ea22 d292 ea22 5b6b 8322 a870 e822
00000240: 8706 a022 5951 7422 c12d 7022 c7de c322
00000250: 81a5 2921 1a49 a51c 60e0 131a 3646 8419
00000260: 5823 bd15 ae55 3211 258e e386 d883 b100
00000270: ae8d de09 0ed4 1411 c9b9 1d18 d06c f019
00000280: 55b7 0c19 41b2 0f1d 2d7b 7b1f 4f68 481f
00000290: 1ae6 2b20 dee6 0823 0e59 f822 8a36 ea22
000002a0: d292 ea22 d292 ea22 4b98 e422 d2ab d922
000002b0: 1ace 6422 8000 f921 c8f2 0322 762e 4a21
000002c0: f78e 2e20 48f0 221c b58a d79a fd2a 0999
000002d0: c26a ab10 6f70 9a0f 6c4d a484 f4f2 7201
000002e0: d347 9c89 7664 8598 f05b 359e 62ba 4020
000002f0: 4a3b 131e 5b7d bb9c 49e1 2aa0 29c6 83a0
00000300: 452a 489f a381 1c22 4525 b622 9b20 dd22
00000310: d292 ea22 7501 ec22 43be f722 54e1 d522
00000320: c43c 4822 a7d4 3d22 19c9 0c22 3a8a 5c21
00000330: 0144 071f d8a6 159a 8c64 1198 6f90 a38e
00000340: aa50 1701 3490 6880 8f32 5a86 d2b6 8c0f
00000350: bbb8 4592 c8fd 179e 21ee 69a2 1599 ae21
00000360: de31 35a0 ae46 901c 4ced 319e 0f8c 77a0
00000370: 61e8 9820 7aa0 f121 ab64 9622 0a1c e922
00000380: d292 ea22 0a97 f122 b499 0523 0fb3 eb22
00000390: 59a1 b022 ec45 6f22 2131 d322 8ba9 d721
000003a0: 53a7 b79e 9486 8498 b429 2695 c0a6 5b03
000003b0: cfb2 2181 9cf4 1b86 58db 3e0c 68c5 1a0e
000003c0: e3c3 f015 f443 029d 0749 95a1 66cd 60a3
000003d0: c1c0 34a2 681a 709e cee5 1b9f 6a83 c6a0
000003e0: 96d9 e1a1 de15 8021 efec 9122 e191 ea22
000003f0: d292 ea22 e672 e422 c841 f422 4d34 e722

encoder.0.bias f4 [128]
-6.358128e-18 -3.301929e-05 -1.6937992e-09 -0.013901331 -0.0011249037 0.021497117 -5.7361825e-13 -1.7364308e-09
0.04762892 -0.00017714604 -6.988028e-14 -0.00847814 0.041030265 0.004091919 0.021989336 -1.2519938e-09
0.054750092 -0.031467 -0.024918446 -0.0027481539 -0.0055929087 -1.2585022e-06 -0.0011737504 -0.031153595
-0.03812287 -0.014770791 -1.5728016e-05 -9.677479e-05 -0.019119637 0.013166553 -0.036737043 0.0031309207
-0.008682435 -7.0469893e-12 -4.6293328e-05 -3.6861338e-06 -0.0050788 -1.1791727e-08 -0.04368363 -0.017293934
-0.03018331 -0.028910607 -0.005592249 -0.00134086 -0.010871844 -0.035217546 -0.0009901476 -5.0351704e-05
-0.00015947336 -2.1339861e-07 -0.018653706 -0.03462427 -2.072054e-07 -0.013868017 -1.1525968e-06 -0.00020957715
-3.605679e-29 -0.030892905 -5.0622537e-11 -3.0649974e-07 0.005585895 -0.00036376237 -0.0054506063 -4.0374428e-17
-1.5512235e-06 -4.337456e-08 -1.7259442e-10 -0.0025098491 -7.73593e-09 -0.013498566 -0.0069575566 -0.026953576
0.0023648683 0.00059904455 0.014018033 -1.2200183e-05 -0.010491022 -0.016027136 0.0035757434 0.013178171
-0.0099215 -9.5272175e-05 -0.00043809647 0.0018984226 0.0053464575 -5.725164e-11 -2.4259385e-05 0.030429894
-0.03151383 0.0004035862 -0.0020257519 -0.019496989 -0.0067420406 -5.5627584e-08 -0.004365575 -1.1182871e-06
-6.300445e-07 -5.3375197e-06 -0.0035095941 0.0021970752 -0.0020518042 -0.02607079 -0.0059156753 -6.317549e-05
-1.2454198e-09 -0.008427948 -0.025896873 -8.377972e-07 -4.1111102e-07 0.0031004655 -0.02332081 -0.035269573
-2.893004e-05 -0.03375453 -0.029012814 -0.00011966805 -3.5163976e-07 -0.00011992888 -0.0206827 -0.010939034
-0.00081474124 -2.2359282e-07 -0.00015858053 -9.860759e-05 -1.0458903e-11 -0.015272603 -8.917484e-05 -0.010196642
00000000: d292 eaa2 317e 0ab8 43cb e8b0 69c2 63bc
00000010: 8171 93ba b91a b03c 8d75 21ab 3aa7 eeb0
00000020: 8b16 433d 47c0 39b9 3d5b 9da9 e6e7 0abc
00000030: 5a0f 283d 8115 863b fb22 b43c 9e12 acb0
00000040: a241 603d 8ae3 00bd c521 ccbc 5f1a 34bb
00000050: b844 b7bb cee9 a8b5 87d8 99ba d335 ffbc
00000060: ba26 1cbd 3001 72bc a8ef 83b7 92f3 cab8
00000070: c9a0 9cbc 87b8 573c 9579 16bd 2230 4d3b
00000080: c640 0ebc a3f1 f7ac 152b 42b8 4c5f 77b6
00000090: 106c a6bb 9094 4ab2 9bed 32bd 02ac 8dbc
000000a0: fd42 f7bc f0d5 ecbc 2f3f b7bb ccbf afba
000000b0: d21f 32bc 4640 10bd d7c7 81ba bb30 53b8
000000c0: 4e38 27b9 9022 65b4 a8cf 98bc 2ed2 0dbd
000000d0: 307c 5eb4 ae36 63bc edb2 9ab5 f0c1 5bb9
000000e0: 64d4 3690 1e13 fdbc e9a3 5eae 018d a4b4
000000f0: e209 b73b 5cb7 beb9 009b b2bb b631 3aa4
00000100: a233 d0b5 d54a 3ab3 03c5 3daf 487c 24bb
00000110: fbe6 04b2 1729 5dbc 37fc e3bb bfcd dcbc
00000120: e8fb 1a3b 3309 1d3a e4ab 653c 63af 4cb7
00000130: 89e2 2bbc 574b 83bc 0557 6a3b 41e9 573c
00000140: ca8d 22bc dccc c7b8 50b0 e5b9 7ed4 f83a
00000150: 5631 af3b 9ecb 7bae a280 cbb7 1d48 f93c
00000160: a514 01bd 6c98 d339 7ac2 04bb 26b8 9fbc
00000170: 56ec dcbb 2deb 6eb3 190d 8fbb 0d18 96b5
00000180: 5420 29b5 f218 b3b6 3801 66bb cefc 0f3b
00000190: 9077 06bb 6992 d5bc 48d8 c1bb 157d 84b8
000001a0: 502b abb0 6015 0abc ae25 d4bc fce4 60b5
000001b0: abb6 dcb4 2e31 4b3b 490b bfbc d476 10bd
000001c0: caae f2b7 3142 0abd 48ac edbc 4cf6 fab8
000001d0: 00c9 bcb4 5482 fbb8 c46e a9bc a239 33bc
000001e0: 5c94 55ba ba14 70b4 a348 26b9 8ccb ceb8
000001f0: b6fe 37ad f139 7abc 6103 bbb8 d10f 27bc

encoder.2.weight f4 [64, 128]
-1.12404e-38 -1.9246051e-38 -4.502393e-38 -4.339355e-38 1.0469095e-38 3.218609e-38 1.0393257e-38 5.1145326e-38
4.085158e-27 -1.4950082e-38 9.48435e-39 -2.6550396e-38 -1.0966815e-18 -4.6476933e-38 7.904136e-30 1.463513e-38
-4.556815e-20 2.6030918e-38 3.061271e-39 3.935854e-39 5.8991515e-38 -2.8504883e-38 -6.9228925e-38 -4.1421292e-38
4.577588e-38 6.786999e-39 1.6881325e-38 -1.4119242e-38 -2.4400264e-38 1.579215e-38 2.8671755e-38 -3.9171373e-38
-1.2279354e-38 -1.5334062e-38 -3.3005186e-38 -4.709912e-38 5.315827e-38 -4.830381e-39 -5.1355745e-38 1.9622651e-38
4.78928e-38 3.683331e-38 -2.5314423e-38 2.950713e-38 8.615336e-39 -1.9574129e-38 -4.168869e-39 -7.984823e-39
-1.8393759e-38 -4.6086184e-38 -5.302061e-39 -1.1682484e-38 -1.5863667e-38 3.288799e-38 -4.273042e-39 -1.0978393e-38
-2.5657598e-38 5.238051e-38 -2.3001308e-38 2.4345448e-38 1.2448474e-38 2.4293928e-38 4.3026455e-38 8.14743e-39
-5.79963e-38 4.1775734e-38 -2.9957452e-38 -1.6170031e-38 -5.0656244e-38 -3.994969e-38 2.869433e-39 1.4097985e-38
2.2254139e-38 -6.055737e-38 -3.4575022e-38 3.1939589e-38 -7.9444625e-28 -5.4586096e-38 -3.289631e-38 -8.052595e-13
-5.819049e-39 9.631143e-39 1.3906074e-38 6.822887e-38 -6.685556e-37 -3.283036e-38 1.5675625e-38 -8.388689e-28
3.081739e-38 3.4095758e-38 -2.6424207e-38 -1.9532516e-38 -1.1983069e-38 -3.256668e-39 -3.2764118e-38 9.527232e-39
3.4268196e-38 -4.4223046e-38 4.9805875e-38 3.4078682e-38 6.4870377e-38 4.876634e-38 4.877094e-38 -1.9305484e-38
-3.546946e-38 -3.1403597e-38 -6.924347e-38 -7.186175e-39 -2.046238e-39 -2.0822216e-38 -3.585628e-38 3.7757415e-38
-1.5226446e-38 -2.92948e-38 6.003107e-39 4.0002234e-38 2.4530044e-38 1.9716359e-38 2.813064e-38 5.843926e-38
-4.4535547e-38 -4.296893e-38 1.0951404e-38 -7.212068e-39 7.72436e-39 -1.6246276e-38 6.5804494e-38 -6.457505e-38
0.0054906807 -0.0005331349 0.0031525334 -0.024022568 0.2205491 0.00027652865 -0.008404034 -0.01776303
0.000596061 0.0033522435 0.0011908271 -0.009767718 0.04359986 0.0046973107 -0.005144888 -0.011758824
0.036272112 -0.00066795835 0.07562963 -0.039584473 -0.2899916 -7.705805e-06 0.026270026 -0.049307495
0.06319718 0.124645114 -0.008465811 0.017225139 0.041250262 0.014287736 0.12194477 0.013774299
0.023025693 0.00091101177 -0.021420853 -0.0077591413 -0.005893737 -0.0008892535 0.031368047 -0.039817166
-0.03150993 0.045229897 -0.16362143 -0.056343555 0.016308228 -0.037515108 0.03095005 -6.530435e-05
-0.015311062 0.013427709 0.0148043735 0.03850781 -4.2499046e-06 0.07808049 0.009314632 0.0227066
-0.0005982173 0.28497982 -0.006803582 -0.018849745 0.018293528 0.009940804 -0.014133331 -0.008541371
0.00068739994 -0.010795653 -0.0034004797 0.00089732825 0.0013973829 -0.11364595 -0.5280606 0.014323205
-0.1403846 -0.13163376 0.06441317 -0.0037379416 -0.1534014 0.05660995 0.11377948 0.019313075
0.028801927 0.019229742 0.19297715 0.13102336 -0.011308477 -0.00087775354 -0.0038325293 -0.09899209
0.087486714 -0.5768565 0.007290341 0.0132505745 -0.012744594 -2.7760321e-05 0.016933568 0.002048551
-0.0051676026 0.02322481 -0.018749401 -0.12141185 -0.03892307 0.09573028 0.010659947 -0.0029309131
0.018509801 0.009401175 0.027100716 -0.0023542526 -6.6950956e-06 0.016194522 0.16537085 -0.025217209
-8.987069e-05 0.17896359 -0.29908463 -0.019874252 6.6513834e-09 -0.032058 -0.024315707 0.06324581
0.022012923 3.2526166e-06 0.004458154 -0.004876005 -0.00047722022 -0.023459451 -0.0070785764 0.10215595
00000000: a965 7a80 2992 d180 3322 7581 c841 6c81
00000010: 94ff 7100 dd3c 2f01 2c2c 7100 173b 8b01
00000020: 6dd4 a113 bfca a280 8246 6700 da8d 1081
00000030: 75d7 a1a1 640b 7d81 9f50 200f ca5c 9f00
00000040: 8330 579f ceb9 0d01 9455 2100 8fdb 2a00
00000050: 1697 a001 0232 1b81 8575 bc81 db84 6181
00000060: 443a 7901 64e7 4900 44d2 b700 b4be 9980
00000070: 01d9 0481 17f6 ab00 981a 1c01 ed44 5581
00000080: d8b5 8580 20f9 a680 84b2 3381 4c37 8081
00000090: e8b5 9001 2399 3480 bbcd 8b81 f8ab d500
000000a0: 6960 8201 248a 4801 28d3 0981 f0a6 2001
000000b0: 0dd0 5d00 b524 d580 1c65 2d80 70f2 5680
000000c0: 514a c880 c4ea 7a81 fdbb 3980 0336 7f80
000000d0: 73bd ac80 2b0f 3301 8187 2e80 4b8b 7780
000000e0: 79b1 0b81 e397 8e01 4a76 fa80 9a8c 0401
000000f0: 488d 8700 cb44 0401 2042 6a01 b8b7 5800
00000100: 86e1 9d81 e072 6301 981a 2381 7813 b080
00000110: 40e6 8981 be81 5981 d03e 1f00 7283 9900
00000120: 7c53 f200 54da a481 8c3e 3c81 4ae5 2d01
00000130: 23c5 7b92 f598 9481 c41a 3381 10a9 62ab
00000140: 245d 3f80 b5df 6800 7a6c 9700 95bc b901
00000150: 687f 6383 d8be 3281 44b1 aa00 91ec 8492
00000160: 2cc9 2701 8da2 3901 f8dd 0f81 b5b0 d480
00000170: ec7b 8280 4476 2380 8462 3281 0cbe 6700
00000180: e592 3a01 eec5 7081 a195 8701 c08a 3901
00000190: 0e98 b001 2ec1 8401 62c4 8401 d637 d280
000001a0: 361d 4181 3afa 2a81 a87f bc81 2240 4e80
000001b0: 1448 1680 debb e280 5c38 4381 2892 4d01
000001c0: 23cd a580 fe7e 1f81 385e 4100 faca 5901
000001d0: e48d 0501 30b1 d600 6428 1901 3816 9f01
000001e0: 7e79 7281 f3f1 6981 0f40 7700 5088 4e80
000001f0: 5f1c 5400 02e8 b080 0a23 b301 3eca af81
00000200: 2beb b33b 14c2 0bba bc9a 4e3b faca c4bc
00000210: a0d7 613e 0cfb 9039 13b1 09bc c683 91bc
00000220: fa40 1c3a 50b1 5b3b 8715 9c3a c708 20bc
00000230: c495 323d e6eb 993b 7396 a8bb 15a8 40bc
00000240: 1192 143d ed19 2fba b5e3 9a3d 5423 22bd
00000250: c779 94be 2e48 01b7 3d34 d73c a8f6 49bd
00000260: 866d 813d f045 ff3d 2fb4 0abc bc1b 8d3c
00000270: 09f6 283d 1c17 6a3c 2ebe f93d 99ad 613c
00000280: 61a0 bc3c f7d0 6e3a c97a afbc 6540 febb
00000290: 4020 c1bb cb1c 69ba c87b 003d 5317 23bd
000002a0: 8e10 01bd fc42 393d 608c 27be 80c8 66bd
000002b0: d598 853c 71a9 19bd f68a fd3c 02f4 88b8
000002c0: 40db 7abc e5ff 5b3c 0b8e 723c 5eba 1d3d
000002d0: 679a 8eb6 aae8 9f3d 669c 183c 3103 ba3c
000002e0: afd1 1cba e0e8 913e 95f0 debb c86a 9abc
000002f0: 4fdc 953c c1de 223c 7d8f 67bc 1bf1 0bbc
00000300: a132 343a 40e0 30bc 95da 5ebb ae3a 6b3a
00000310: 6428 b73a 35bf e8bd fb2e 07bf e0ab 6a3c
00000320: fbc0 0fbe 00cb 06be 0deb 833d 41f8 74bb
00000330: 4215 1dbe d6df 673d 3705 e93d 7436 9e3c
00000340: 05f2 eb3c b187 9d3c cd9b 453e fd2a 063e
00000350: 3147 39bc 0b19 66ba 2c2b 7bbb 5dbc cabd
00000360: 3c2c b33d deac 13bf d0e3 ee3b f018 593c
00000370: b4ce 50bc d6de e8b7 44b8 8a3c fc40 063b
00000380: fe54 a9bb f541 be3c 5898 99bc c7a6 f8bd
00000390: cc6d 1fbd 3d0e c43d 0fa7 2e3c 9014 40bb
000003a0: dea1 973c 6307 1a3c 5202 de3c ce49 1abb
000003b0: 6fa6 e0b6 60aa 843c fa56 293e 5294 cebc
000003c0: f678 bcb8 3b42 373e 9f21 99be 54cf a2bc
000003d0: 308a e431 404f 03bd bc31 c7bc 0587 813d
000003e0: 7254 b43c 8747 5a36 b515 923b e5c6 9fbb
000003f0: 6a33 fab9 092e c0bc 67f3 e7bb 2437 d13d

encoder.2.bias f4 [64]
-6.596155e-38 0.10516187 -0.004641735 0.022338616 0.3248632 3.400485e-39 0.22920656 0.039130643
0.1998523 0.118495956 4.3065293e-38 -0.027569938 -2.7635663e-38 0.013736473 -1.6692843e-15 -6.166593e-05
0.07115539 0.13898161 -0.025230546 -0.09812093 -1.1803028e-30 -0.012667798 0.1024702 0.06707039
-0.028997276 1.3520996e-36 -0.08857918 -0.027791895 -1.2085831e-38 -7.426475e-39 -1.0917431e-28 3.0338372e-38
-0.039806858 0.06568528 0.11889714 -0.0609661 -0.03813289 0.03469733 -5.804419e-38 0.2485035
0.22516942 -0.02403327 -0.034145247 0.09102479 -0.004102133 -2.4387043e-08 -0.020262787 0.26662895
-0.04133869 0.027047567 0.043427937 -0.06898759 0.40085137 4.8986956e-38 -4.6958817e-06 -0.016032433
0.055961106 -0.0010752482 -3.24642e-13 -0.008902925 -3.7737164e-38 0.15761165 -0.08433587 -1.5071862e-25
00000000: 7e90 b381 1b5f d73d b219 98bb 79ff b63c
00000010: 7854 a63e 2b07 2500 20b5 6a3e 7447 203d
00000020: 15a6 4c3e 02ae f23d 4278 6a01 5ada e1bc
00000030: 7e76 1681 f20e 613c b891 f0a6 a552 81b8
00000040: ebb9 913d 3251 0e3e 4ab0 cebc a0f3 c8bd
00000050: dc83 bf8d 998c 4fbc e5db d13d 335c 893d
00000060: b28b edbc 3e0c e603 0069 b5bd d4ab e3bc
00000070: 619a 8380 fedd 5080 1765 0a91 852d 2501
00000080: 840c 23bd 0186 863d 5880 f33d 97b7 79bd
00000090: 3c31 1cbd ca1e 0e3d e602 9e81 b477 7e3e
000000a0: d092 663e 6ce1 c4bc e3db 0bbd 356b ba3d
000000b0: 306b 86bb ad7b d1b2 25fe a5bc 9783 883e
000000c0: c252 29bd dc92 dd3c 7ee1 313d 5e49 8dbd
000000d0: 643c cd3e ed5a 8501 5191 9db6 7356 83bc
000000e0: 7937 653d 58ef 8cba d8c1 b6aa 93dd 11bc
000000f0: ee75 4d81 f364 213e 49b8 acbd a394 3a96

encoder.4.weight f4 [12, 64]
2.7504885e-09 0.057050336 -0.008364196 0.37037638 0.17239732 2.8814482e-09 0.23851441 0.041067448
-0.017422685 -0.079784684 1.9647995e-31 -0.11364212 1.0007873e-38 -0.004366081 -0.0022954615 -0.016985426
0.30230215 -0.0012232468 0.2540909 -0.031203264 1.7281224e-10 -0.0121852765 0.48519188 -0.45278102
0.19024736 -8.755913e-08 0.38724026 0.37607595 1.303629e-13 8.410524e-08 -1.2431833e-05 -2.6298178e-06
0.48854688 0.3749083 0.15249586 -0.057627026 -0.035352428 0.1018648 0.00020830202 -0.017114097
-0.004628783 -0.15910168 0.08479507 0.15761168 0.020699527 4.1136165e-05 0.012824884 -0.023396453
-0.0029789726 -0.014412611 -0.042904116 0.4553012 0.16553783 1.5224133e-38 0.004992843 0.31582782
0.4138232 -0.004411528 -0.0065327967 0.007215327 -6.792813e-11 0.1708013 0.027564377 0.00561322
8.767466e-39 0.009492705 -0.010853771 0.49449325 0.32941732 5.9442734e-13 0.19038408 -0.010284727
0.025664633 0.035558447 -5.5416343e-38 -0.016316583 -1.0805285e-38 0.012573156 -0.0018045933 -0.0126470355
0.4905442 -0.029087206 0.35480136 -0.06884582 5.0662346e-19 0.13262513 -0.40725031 -1.0786525
0.26361603 -3.2677376e-14 0.35591453 0.32268628 1.6443523e-14 3.904415e-11 3.4360883e-06 -2.828875e-10
0.41285205 0.53475845 0.34346583 -0.03298416 -0.037177928 0.20332946 3.4373166e-05 0.0007479627
0.2914051 -0.13467558 0.15063068 -0.04025963 0.022553584 -2.7137034e-05 0.0061394703 0.004705091
-0.0041661393 0.017495764 0.010434232 0.34578654 0.075739734 5.977838e-38 0.0009571756 0.17440093
0.49659744 -0.0020800931 -0.0009788409 0.005169294 1.2600012e-21 0.22486952 -0.012321794 0.0013701335
2.3806104e-08 -0.053254027 -0.003084455 0.36762634 0.283808 -4.378968e-09 0.18720676 0.08726372
0.06854227 0.014246796 -8.02236e-35 -0.075357184 7.300375e-39 -0.0028292884 -0.0026711714 -0.023111675
0.36865404 -0.049951654 0.26311874 0.048888683 8.713928e-10 0.11759053 -0.3919995 -1.2539151
0.21829236 -1.8893664e-07 0.36399233 0.36636567 4.219331e-14 2.2020917e-08 6.4135484e-06 -2.0411146e-06
0.43290392 0.39676672 0.20121968 -0.07072603 -0.034702808 0.23420846 0.00016510718 0.056961883
0.16571915 -0.16932267 0.15331958 0.051221684 0.020942025 0.00021453027 0.013676764 -0.046305567
0.0010568604 0.03559334 -0.04142911 0.44036356 0.12472546 9.546496e-39 0.006905575 0.30341062
0.3919828 -0.0047793337 -0.0076994146 0.013259426 -6.0843885e-11 0.06073006 -0.006842174 0.0054132445
5.557106e-38 -0.48102158 0.02357002 -0.040210973 0.17448525 1.8164645e-17 0.09290689 -0.12318755
-0.20292726 -0.1388084 -7.997509e-39 -0.2526059 -3.770603e-39 0.06482254 -0.00055790314 -0.02192884
0.06603049 0.10620958 -0.034122195 -0.025811074 1.8946002e-13 0.06667222 0.8975893 1.0040097
-0.026283903 -4.1951235e-38 -0.028866189 0.05966107 -4.2506055e-14 -2.7412538e-12 -3.646918e-08 -1.2523835e-38
-0.027838655 0.060341712 -0.1464791 -0.015964268 -0.03947453 0.21479547 5.341595e-38 0.104588464
-0.05978529 0.05906542 -0.07632617 -0.16878825 -0.004313916 0.0034698034 -0.035870504 0.088978514
0.023463594 0.045162972 0.012738724 -0.07289969 0.073272124 -3.874192e-39 0.022470664 0.011773246
-0.020028628 0.0019572936 0.0002963156 0.013885388 1.13794675e-14 -0.3007518 -0.17194338 4.0567033e-06
00000000: 1b03 3d31 9dad 693d fb09 09bc f9a1 bd3e
00000010: ec88 303e f902 4631 1f3d 743e 5736 283d
00000020: 05ba 8ebc 2766 a3bd aa0b 7f0c 33bd e8bd
00000030: e1f9 6c00 5811 8fbb 746f 16bb 0525 8bbc
00000040: 59c7 9a3e 5a55 a0ba 3418 823e fd9d ffbc
00000050: 5202 3e2f c1a4 47bc 126b f83e ead2 e7be
00000060: 34d0 423e 2408 bcb3 5b44 c63e 078d c03e
00000070: 8cc6 122a 589d b433 5192 50b7 ed7b 30b6
00000080: d122 fa3e fbf3 bf3e e027 1c3e 510a 6cbd
00000090: b5cd 10bd 7e9e d03d a66b 5a39 dd32 8cbc
000000a0: 0cad 97bb 8deb 22be 0aa9 ad3d f564 213e
000000b0: 0e92 a93c 9f89 2c38 761f 523c eba9 bfbc
000000c0: de3a 43bb df22 6cbc 3abc 2fbd 3d1d e93e
000000d0: c082 293e b0c6 a500 019b a33b 2fb4 a13e
000000e0: a2e0 d33e 948e 90bb 1211 d6bb 8d6e ec3b
000000f0: 2360 95ae 89e6 2e3e b0ce e13c 1aef b73b
00000100: 2178 5f00 4a87 1b3c 04d4 31bc 382e fd3e
00000110: 63a9 a83e 0151 272b 0bf4 423e 4681 28bc
00000120: a33e d23c bca5 113d 8edb 9681 5baa 85bc
00000130: bda8 7580 a3ff 4d3c 1a88 ecba 8335 4fbc
00000140: 9c28 fb3e 4b48 eebc 86a8 b53e 0aff 8cbd
00000150: 6387 1521 e2ce 073e 1d83 d0be 4911 8abf
00000160: aef8 863e 732a 13a9 6e3a b63e 2337 a53e
00000170: 2f1c 9428 ceb7 2b2e 8c97 6636 e084 9baf
00000180: 5861 d33e eee5 083f c1da af3e 661a 07bd
00000190: e247 18bd 9935 503e e82b 1038 ed12 443a
000001a0: 0d33 953e 65e8 09be ee3e 1a3e 48e7 24bd
000001b0: 4bc2 b83c 56a4 e3b7 9c2d c93b 2a2d 9a3b
000001c0: 1c84 88bb 4753 8f3c 57f4 2a3c ef0a b13e
000001d0: 6f1d 9b3d 73bb a201 f8ea 7a3a 2896 323e
000001e0: 0542 fe3e 2c52 08bb 734c 80ba 2e63 a93b
000001f0: ef67 be1c 3244 663e 5ae1 49bc 0d96 b33a
00000200: 2d7e cc32 e520 5abd 9124 4abb 8539 bc3e
00000210: 484f 913e cf75 96b1 21b3 3f3e 52b7 b23d
00000220: e45f 8c3d 656b 693c 5a45 d586 de54 9abd
00000230: 7a7e 4f00 956b 39bb d20e 2fbb b254 bdbc
00000240: 39c0 bc3e 1b9a 4cbd 80b7 863e 803f 483d
00000250: d186 6f30 4ed3 f03d 29b4 c8be 4a80 a0bf
00000260: 0888 5f3e 82de 4ab4 345d ba3e 4894 bb3e
00000270: 9305 3e29 8228 bd32 f633 d736 15fa 08b6
00000280: 95a5 dd3e 0225 cb3e 880c 4e3e cfd8 90bd
00000290: 8824 0ebd 58d4 6f3e 9f20 2d39 dd50 693d
000002a0: 48b2 293e ec62 2dbe cfff 1c3e d4cd 513d
000002b0: 9c8e ab3c 88f3 6039 8214 603c e8aa 3dbd
000002c0: 5a86 8a3a 52ca 113d 92b1 29bd 5577 e13e
000002d0: 1070 ff3d bff3 6700 2948 e23b a358 9b3e
000002e0: f8b1 c83e f59b 9cbb 5f4b fcbb 103e 593c
000002f0: 10cc 85ae 15c0 783d 5134 e0bb 9661 b13b
00000300: 6047 9701 7648 f6be ea15 c13c 43b4 24bd
00000310: 43ac 323e 0e8a a723 f845 be3d c149 fcbd
00000320: 2acc 4fbe ca23 0ebe cd15 5780 8f55 81be
00000330: e80e 2980 aec1 843d 3f40 12ba 1ca4 b3bc
00000340: fe3a 873d 6984 d93d b7c3 0bbd bf71 d3bc
00000350: 2250 552a 728b 883d 6ac8 653f 6483 803f
00000360: 5751 d7bc 7d67 6481 c978 ecbc 2b5f 743d
00000370: 256e 3fa9 0ae6 40ac 4aa2 1cb3 5b5f 8880
00000380: e40d e4bc df28 773d 9efe 15be 7fc7 82bc
00000390: 0bb0 21bd 58f3 5b3e 7c69 9101 7a32 d63d
000003a0: 6ce1 74bd 95ee 713d e550 9cbd d4d6 2cbe
000003b0: c05b 8dbb a465 633b f3ec 12bd 5e3a b63d
000003c0: b936 c03c cffc 383d 15b6 503c 6f4c 95bd
000003d0: b20f 963d ac2f 2a80 6614 b83c 93e4 403c
000003e0: 1413 a4bc f045 003b ce5a 9b39 8a7f 633c
000003f0: 88fe 4c28 24fc 99be ed11 30be d11e 8836

encoder.4.bias f4 [12]
0.21482965 0.13418965 0.23532054 0.22920486 0.39249855 0.2046502 0.40815425 -0.014613533
0.2426184 0.11371125 0.18024902 0.13866013
00000000: 4efc 5b3e 0369 093e def7 703e aeb4 6a3e
00000010: 92f5 c83e d28f 513e 98f9 d03e 9a6d 6fbc
00000020: f570 783e 72e1 e83d 3393 383e ecfc 0d3e

encoder.6.weight f4 [2, 12]
-0.3917122 -0.32882866 -0.3952436 0.96934706 -0.096431494 0.03260824 0.0030061682 -0.008360443
-0.37412584 0.13371703 0.7312456 0.39267704 0.20982397 0.31281236 0.16704847 -0.1848916
0.5378439 0.39069328 0.6421838 -0.016920403 0.5920038 -0.4473216 0.50839096 1.181015
00000000: 808e c8be 3b5c a8be 5e5d cabe 2127 783f
00000010: e07d c5bd 3890 053d 2203 453b 3dfa 08bc
00000020: 6c8d bfbe 1eed 083e e932 3b3f f70c c93e
00000030: 18dc 563e f128 a03e c10e 2b3e 3954 3dbe
00000040: 23b0 093f f308 c83e 2866 243f a89c 8abc
00000050: 908d 173f 5607 e5be e925 023f 802b 973f

encoder.6.bias f4 [2]
-0.40773305 -0.071691684
00000000: 63c2 d0be 17d3 92bd

decoder.0.weight f4 [12, 2]
-1.1768442 -0.37430802 0.7246479 0.4086252 -0.7829219 0.24693492 0.25938308 0.32685682
0.9001246 0.8527963 0.17286076 0.7727248 -0.83297855 0.2605548 -0.5274803 0.6171891
-0.3245707 -0.39435545 -0.46346235 0.51231307 -0.5536117 0.63587487 0.17694096 0.5394096
00000000: d5a2 96bf 4da5 bfbe 8682 393f 5237 d13e
00000010: 926d 48bf 82dc 7c3e dccd 843e c759 a73e
00000020: 916e 663f dc50 5a3f 6902 313e 4bd1 453f
00000030: 153e 55bf 7067 853e f308 07bf 1b00 1e3f
00000040: 212e a6be f5e8 c9be f04a edbe f326 033f
00000050: 7fb9 0dbf b2c8 223f 0330 353e bf16 0a3f

decoder.0.bias f4 [12]
1.1754278 1.1950495 -1.8543842 0.74748456 0.5149393 -1.5721236 -0.9304391 1.8598741
0.37059483 -0.35379127 1.7389663 -0.47592336
00000000: 6b74 963f 62f7 983f 765c edbf 265b 3f3f
00000010: 10d3 033f 593b c9bf 4231 6ebf 5b10 ee3f
00000020: 9bbe bd3e 2124 b5be 7396 de3f 3aac f3be

decoder.2.weight f4 [64, 12]
0.79552656 0.48611093 -0.63933885 0.07618791 -0.18392634 -1.8093622 -0.39692932 0.4153855
-0.1856738 -0.3149405 0.28108758 -0.71043456 3.3231404e-38 1.8441486e-38 -5.369379e-38 -4.5238404e-38
-2.4982097e-38 -5.532963e-38 -4.6840441e-38 -6.836176e-38 5.926729e-38 -3.364221e-38 -6.774378e-38 -5.2830656e-38
1.6682325e-38 -2.3757891e-17 -6.5571844e-25 -2.5363534e-19 -1.1740111e-09 -7.4450134e-11 -4.4723253e-21 -2.769325e-09
3.812074e-38 -1.6472781e-12 -3.5113392e-09 -1.4900663e-13 -0.102509275 -0.0155367395 -0.13864072 0.093979865
-0.22645727 0.15084144 -0.3003497 0.19325873 -0.09681312 0.1423403 0.083069965 0.22601108
-0.44297495 -0.23267421 -0.14019 0.019212913 0.060198754 -0.18251337 0.007112388 0.15634133
0.042600557 0.1567748 0.17097779 -0.18930508 0.16078116 0.5016337 -0.46133298 0.2447036
0.11294635 -0.31237692 -1.9224913 0.10962805 0.20541455 -0.5391184 0.12951781 -0.13740519
0.010424819 -0.25741142 0.055586297 0.07857724 0.07130156 0.13160914 -0.02614706 0.039075706
3.151389e-39 -0.10030487 -0.14640607 0.02473883 -9.787099e-06 -0.0003047285 -4.198687e-05 -8.932517e-05
-0.0038579754 -0.0024188885 -0.00010037284 -0.0029741463 -9.252478e-39 -0.0008988085 -0.0031131427 -0.0007449545
-0.64275587 -0.051637508 -0.0361387 -0.1414616 -0.003154195 -0.12135297 0.1969801 0.031327583
-0.0005993021 -0.14709575 0.24703896 0.011146361 -5.63383e-39 1.6810956e-38 2.456232e-39 1.0745734e-38
3.266493e-36 1.1038094e-38 -1.71641e-39 -1.2301902e-33 1.542959e-39 4.327638e-39 -4.0641042e-33 1.0130689e-38
0.088641144 -0.008408642 -0.42896762 0.3147888 -0.053717908 -0.25291368 -0.15070166 0.390294
-0.06934701 -0.09135507 0.18937387 -0.08641869 -0.44763172 -0.46803603 -0.009257196 0.32793644
-0.34430683 -0.24124871 0.14554743 0.24625352 -0.044558566 0.21891122 0.24737315 0.30544642
-3.3674065e-38 -1.220381e-13 -6.4352294e-23 -8.741362e-16 -4.6504084e-08 -1.964795e-09 -3.8957252e-19 -2.936954e-08
1.7859955e-38 -2.8251937e-11 -3.5736914e-08 -1.3923778e-11 0.054087196 0.38018438 -1.0374364 -0.07125707
-0.031642828 -0.13218173 -0.32692853 0.36444354 0.14794208 -0.070081666 0.19204332 -0.0807965
-0.21758863 0.33565825 -0.62108046 0.026280113 0.47604784 0.1458449 -0.8315865 -0.27406117
0.028426012 -0.15771611 -0.07548455 -0.055534884 -4.99334e-40 5.470568e-39 1.339989e-39 7.526e-40
-3.911171e-21 -4.376043e-28 5.584215e-39 -3.815621e-21 1.7891039e-38 5.977633e-37 -5.4058087e-21 1.8207739e-37
-0.024228066 -0.03552567 -0.033209335 -0.029451104 -0.036674917 -0.041873157 -0.037085734 -0.04335653
-5.1126627e-09 -0.04201525 -0.04372162 -0.037842818 -0.002338056 -0.0071672015 -0.008298126 -0.007976387
-0.017192136 -0.018584345 -0.012322076 -0.0252973 1.5400733e-32 -0.020444425 -0.025741993 -0.014348313
-0.47510657 0.29425526 0.40387905 0.041853365 0.06130305 -0.65402097 0.014746857 0.24788104
0.013620687 -0.363438 0.26846775 -0.060481764 -0.32692406 0.18264094 -1.1420519 0.09701638
-0.153816 0.09675479 -0.44673473 0.28149024 0.19203638 -0.1663024 0.32722518 -0.022167388
-0.20863375 -0.14365597 -0.6735501 0.0021651548 -0.27593288 0.1683535 0.05115183 0.046531986
-0.11569919 0.09784018 0.32650608 0.06543333 -0.31689724 0.043047886 -0.19940971 0.12029744
00000000: a1a7 4b3f 88e3 f83e b6ab 23bf 6808 9c3d
00000010: 3057 3cbe 2e99 e7bf 523a cbbe 69ad d43e
00000020: 4621 3ebe e23f a1be b6ea 8f3e 0adf 35bf
00000030: d1ed 3401 5ccf c800 1c2b 9281 224d 7681
00000040: f603 0881 209f 9681 0c06 7f81 3219 ba81
00000050: 4657 a101 662a 3781 866a b881 98d1 8f81
00000060: 89a7 b500 bc20 dba3 5eef 4a97 4ab8 95a0
00000070: d85a a1b0 b3b7 a3ae adf5 a89d 7b4e 3eb1
00000080: 8f8c 4f01 73d5 e7ab 224c 71b1 3dc4 27aa
00000090: 62f0 d1bd cf8d 7ebc d5f7 0dbe 8478 c03d
000000a0: 6ae4 67be 2e76 1a3e 70c7 99be 9ee5 453e
000000b0: f545 c6bd a8c1 113e 9620 aa3d 736f 673e
000000c0: 9dcd e2be 2642 6ebe f88d 0fbe 6664 9d3c
000000d0: f892 763d c9e4 3abe 090f e93b f117 203e
000000e0: ec7d 2e3d 9389 203e cd14 2f3e 31d9 41be
000000f0: d1a3 243e 116b 003f d633 ecbe 9593 7a3e
00000100: 6a50 e73d deef 9fbe 3214 f6bf ac84 e03d
00000110: 3158 523e aa03 0abf 51a0 043e f2b3 0cbe
00000120: dccc 2a3c 6ecb 83be 75ae 633d 1bed a03d
00000130: 8d06 923d 8cc4 063e 5c32 d6bc d90d 203d
00000140: ca50 2200 a46c cdbd 79eb 15be 16a9 ca3c
00000150: 4533 24b7 f8c3 9fb9 0f1b 30b8 1654 bbb8
00000160: 16d6 7cbb 3786 1ebb 427f d2b8 e5e9 42bb
00000170: 25c0 6480 049e 6bba de05 4cbb 0d49 43ba
00000180: a68b 24bf da81 53bd 2c06 14bd 4fdb 10be
00000190: 9cb6 4ebb e887 f8bd 27b5 493e 5a51 003d
000001a0: 7c1a 1dba 45a0 16be c8f7 7c3e 3a9f 363c
000001b0: d358 3d80 1b0e b700 fabe 1a00 bc02 7500
000001c0: f6f0 8a04 b731 7800 a7b0 1280 8166 cc88
000001d0: 24cd 1000 b21f 2f00 f8d0 a889 3d50 6e00
000001e0: 7d89 b53d 67c4 09bc a5a1 dbbe ff2b a13e
000001f0: 4f07 5cbd e77d 81be 8951 1abe 9dd4 c73e
00000200: ce05 8ebd 5e18 bbbd 39eb 413e 48fc b0bd
00000210: fc2f e5be 6ba2 efbe 7fab 17bc 49e7 a73e
00000220: fc48 b0be e709 77be 630a 153e e229 7c3e
00000230: 0b83 36bd 432a 603e 634f 7d3e 7963 9c3e
00000240: cc56 3781 1667 09aa 2498 9b9a def3 7ba6
00000250: c8bb 47b3 0a05 07b1 89f6 e5a0 4d48 fcb2
00000260: 4a7a c200 b581 f8ad 277d 19b3 1ff3 74ad
00000270: 898a 5d3d 87a7 c23e b7ca 84bf 3aef 91bd
00000280: e99b 01bd a65a 07be 2d63 a7be 5898 ba3e
00000290: 217e 173e fa86 8fbd 01a7 443e a378 a5bd
000002a0: 8ecf 5ebe 66db ab3e 21ff 1ebf 6449 d73c
000002b0: 8bbc f33e 5e58 153e dae2 54bf bf51 8cbe
000002c0: abdd e83c 5580 21be a597 9abd 8c78 63bd
000002d0: f16f 0580 b891 3b00 5897 0e00 f131 0800
000002e0: 86c2 939d aeae 0a92 85ce 3c00 6c26 909d
000002f0: f0d0 c200 8768 4b03 c639 cc9d b6d4 7702
00000300: f079 c6bc 5d83 11bd 8306 08bd 7143 f1bc
00000310: 7038 16bd 3083 2bbd 36e7 17bd 9e96 31bd
00000320: 75ab afb1 2f18 2cbd 7115 33bd 1201 1bbd
00000330: 123a 19bb d8da eabb ddf4 07bc 64af 02bc
00000340: 86d6 8cbc 323e 98bc 88e2 49bc 493c cfbc
00000350: 2cee 9f0a 117b a7bc dfe0 d2bc 3015 6bbc
00000360: 2b41 f3be a0a8 963e 3cc9 ce3e 6f6e 2b3d
00000370: e818 7b3d eb6d 27bf cd9c 713c 87d4 7d3e
00000380: 4d29 5f3c 8c14 babe 9b74 893e babb 77bd
00000390: 9762 a7be 3a06 3b3e c22e 92bf 86b0 c63d
000003a0: f181 1dbe 6027 c63d 6aba e4be 7d1f 903e
000003b0: 2fa5 443e 2d4b 2abe 0f8a a73e 6298 b5bc
000003c0: 16a4 55be 8d1a 13be c86d 2cbf 45e5 0d3b
000003d0: 1347 8dbe dc64 2c3e 9584 513d 5398 3e3d
000003e0: b2f3 ecbd 6f60 c83d ce2b a73e e901 863d
000003f0: 5b40 a2be fb52 303d 0f32 4cbe 815e f63d

decoder.2.bias f4 [64]
1.2156385 -1.9703464e-38 1.9544973e-38 -0.27218613 0.084548295 1.4629107 0.0007750919 1.8253683e-13
0.16560441 -6.051124e-38 1.0527363 0.07563292 -6.5670967e-38 0.8536998 0.16250129 -2.4953152e-38
-0.005959043 -7.3299896e-05 0.63531053 0.67807776 0.096361466 0.3673607 0.3624031 0.7598849
-2.723639e-35 -4.2619464e-38 0.26539603 0.112797745 0.4178761 0.34036106 5.465065e-28 0.052614845
1.1007305 0.017064454 0.7800904 -0.92192364 0.113417454 -3.973844e-38 -4.106232e-38 -0.54140425
-3.5215595e-38 0.35549024 -1.4115153e-38 0.77721006 -8.9519443e-07 0.06636306 -0.001963676 -3.6556257e-19
0.6867644 -3.6514133e-38 -0.76783305 -1.0271131 0.1043194 -0.00039928043 0.07535287 -4.642732e-07
0.2884536 -0.068994805 -2.715352e-38 -0.033034958 1.0387366 -3.089172e-39 -0.9312006 0.044317003
00000000: 0b9a 9b3f 3e8d d680 6fd3 d400 fb5b 8bbe
00000010: a827 ad3d a840 bb3f 892f 4b3a a984 4d2a
00000020: 3494 293e 2eba a481 10c0 863f 6fe5 9a3d
00000030: fcc5 b281 128c 5a3f bd66 263e 9edb 0781
00000040: 1344 c3bb 95b8 99b8 b6a3 223f 8196 2d3f
00000050: 2959 c53d b416 bc3e e68c b93e d187 423f
00000060: 41d0 1086 dd0a 6881 fde1 873e 8102 e73d
00000070: dbf3 d53e ce43 ae3e e031 2d12 aa82 573d
00000080: bde4 8c3f c1ca 8b3c 01b4 473f 3003 6cbf
00000090: 6947 e83d 4d5b 5881 8590 5f81 7899 0abf
000000a0: 60bb 3f81 d102 b63e 4eb3 9980 3df7 463f
000000b0: 4b4d 70b5 5be9 873d 04b1 00bb 41ca d7a0
000000c0: cbcf 2f3f 46cd 4681 b590 44bf 7178 83bf
000000d0: 69a5 d53d 8356 d1b9 9b52 9a3d 3941 f9b4
000000e0: 31b0 933e 264d 8dbd 7cd6 1381 aa4f 07bd
000000f0: 52f5 843f 5ba3 2180 2a63 6ebf bf85 353d

decoder.4.weight f4 [128, 64]
0.18754774 -2.884791e-39 2.169259e-39 0.2594086 0.051344078 -0.18959068 -0.02127152 3.9771564e-07
-0.066630796 -8.72605e-40 0.14089222 0.15639326 -1.1835803e-38 0.25797367 0.078827396 1.8280601e-38
-0.01243207 0.00026074908 -0.07058783 -0.10158797 0.08467538 0.15611535 0.58557117 -0.18993726
-4.2900134e-36 8.60876e-39 -0.24173692 0.12054701 0.007142706 0.14654699 -1.5980545e-25 -0.014556166
0.08475604 0.084615804 0.516906 -0.06942535 0.07490667 -4.3997633e-38 2.4513334e-38 -0.15974323
-3.945614e-38 0.034833636 4.27256e-39 -0.2814103 2.4553524e-06 -0.2195028 -0.024867833 -2.0956097e-07
-0.60629493 1.4417937e-16 -0.029488886 0.17981754 -0.24816397 -0.0065873666 -0.045794994 -0.0016196484
-0.0044605476 0.043897185 -2.0120236e-13 0.0027289633 0.35650027 7.762255e-39 -0.6697059 0.28957015
0.3632475 2.581081e-38 -3.840861e-39 0.009466177 -0.015719557 0.469173 0.00078215834 1.3713392e-07
-0.08627674 6.499497e-39 0.07107792 0.08085337 -4.3955437e-38 -0.078726485 -0.14900202 -1.9138078e-38
0.017922996 -0.0026149866 -0.054910716 -0.3463341 0.06155481 -0.022458779 0.03791695 -0.24839665
2.7192596e-37 1.2331686e-38 -1.5279243 0.03386611 0.09248383 -0.069424234 -6.7785986e-27 -0.067277916
0.086009964 -0.10347452 0.31818658 0.0705013 0.20039329 -5.259135e-39 -3.788253e-39 0.014476373
-5.382015e-39 0.042323936 -1.2678402e-38 0.26552668 1.28394114e-17 0.02609611 0.012779438 -2.2076484e-10
0.23007625 1.0950987e-17 0.005511232 0.034965992 -0.21891122 0.00012692202 0.010753257 -0.00059314986
-0.23908088 0.040494658 1.1296899e-20 -0.022379959 -0.097005196 -4.026212e-39 0.11301766 0.062117476
-0.8577145 2.0208541e-38 9.096514e-39 0.09184032 0.050458938 0.18530142 -0.0045220577 -0.0016060134
-0.09486031 -7.60068e-39 0.2564687 -0.028459145 -1.1847356e-21 -0.9004672 -0.20275012 1.884574e-38
0.029689062 -0.003080991 0.14335409 -0.2911496 0.081493355 0.12852284 1.939596e-38 0.16065012
1.8543013e-38 2.9837943e-15 -0.23244846 0.08253086 0.17894717 -0.008241707 3.4663904e-25 0.040596344
0.24414565 0.038252134 -0.12671459 -0.023626298 0.20000672 1.6901079e-38 -5.673592e-38 0.001510324
1.0569732e-38 0.06559265 -2.9645388e-19 0.284155 -3.9122216e-13 0.05165228 -0.004869066 -2.572339e-07
0.4304452 1.6969635e-07 -0.048646513 -0.05540671 -0.01988363 0.0046303496 0.033298485 -0.012615333
0.12185813 0.019695634 1.4993023e-07 -0.051092252 -0.14628088 3.008219e-39 0.025297185 -0.15991765
-0.0548022 -7.236287e-39 3.4082147e-16 0.016890781 0.049538765 0.15633541 0.0029601636 -0.0023013637
-0.02567948 -1.2401086e-38 0.3085664 0.15123902 9.596276e-13 -0.03332158 0.010104569 9.504652e-39
-0.0018188859 0.02505736 -0.18483011 -0.20303537 0.15554945 0.22910896 0.0826338 0.27389824
-2.008266e-36 2.2731177e-19 -0.03585137 0.13011207 -0.036112778 -0.25179368 -8.87336e-26 0.0065938085
0.40166938 0.09776353 -0.009004802 -0.109985724 -0.16193095 1.3996051e-38 -7.212672e-39 -0.011961394
-4.547022e-39 0.06333175 1.76587e-39 0.10503606 1.9154053e-05 0.1510081 -0.020908754 5.740034e-06
0.09255588 2.6529492e-11 -0.10173543 -0.13747741 0.19657062 -0.018897202 0.05911565 -0.0047752913
-0.21751194 -0.013290522 -2.1575847e-06 -0.010552346 -0.35049915 6.460684e-39 -0.055399004 0.040742148
00000000: 840c 403e a069 1f80 039f 1700 34d1 843e
00000010: 2b4e 523d 0f24 42be 9c41 aebc 9f85 d534
00000020: ba75 88bd 7880 0980 0d46 103e 8e25 203e
00000030: 67e1 8080 2015 843e 4270 a13d e10e c700
00000040: e2af 4bbc 26b5 8839 5a90 90bd 5b0d d0bd
00000050: 496a ad3d b4dc 1f3e fee7 153f ea7e 42be
00000060: 1c7a b684 b8bd 5d00 e289 77be 5ae1 f63d
00000070: 5c0d ea3b 6a10 163e 5ed4 4596 fc7c 6ebc
00000080: 9394 ad3d 0d4b ad3d f453 043f e12e 8ebd
00000090: ab68 993d c08b 6f81 9a76 0501 bb93 23be
000000a0: d5d1 5681 b7ad 0e3d 2986 2e00 0315 90be
000000b0: a2c6 2436 58c5 60be a0b7 cbbc ae03 61b4
000000c0: 2536 1bbf 3d3a 2625 ad92 f1bc 1722 383e
000000d0: b21e 7ebe d6da d7bb 8893 3bbd 624a d4ba
000000e0: c929 92bb 89cd 333d a288 62aa 68d8 323b
000000f0: 3487 b63e 0286 5400 d971 2bbf 8a42 943e
00000100: 94fb b93e 0587 0c01 c2d2 2980 0618 1b3c
00000110: 4dc6 80bc 7237 f03e c209 4d3a 163f 1334
00000120: dcb1 b0bd f4c5 4600 4d91 913d 7496 a53d
00000130: f050 6f81 5a3b a1bd fc93 18be 2d65 d080
00000140: 3fd3 923c 3260 2bbb 0fea 60bd b452 b1be
00000150: e520 7c3d 79fb b7bc ce4e 1b3d b15b 7ebe
00000160: 2f10 b902 b947 8600 0693 c3bf 31b7 0a3d
00000170: 2a68 bd3d 4b2e 8ebd 9443 0694 01c9 89bd
00000180: fe25 b03d 73ea d3bd 5ae9 a23e fc62 903d
00000190: e633 4d3e 5444 3980 1c40 2980 4f2e 6d3c
000001a0: de9a 3a80 dd5b 2d3d 3a0e 8a80 1df3 873e
000001b0: 68d8 6c23 82c7 d53c d960 513c c7bb 72af
000001c0: 1c99 6b3e 9302 4a23 9197 b43b 8038 0f3d
000001d0: 432a 60be 5f16 0539 6e2e 303c 9d7d 1bba
000001e0: 9ed1 74be badd 253d 7464 551e 2d56 b7bc
000001f0: a9aa c6bd 71d7 2b80 ce75 e73d e56e 7e3d
00000200: 2d93 5bbf 310d dc00 610d 6300 c716 bc3d
00000210: 08ae 4e3d a8bf 3d3e c52d 94bb de80 d2ba
00000220: 1f46 c2bd 9ac3 5280 de4f 833e 2723 e9bc
00000230: 3d08 b39c 0585 66bf ba9d 4fbe 4136 cd00
00000240: 7a36 f33c 74ea 49bb 6acb 123e 8f11 95be
00000250: fde5 a63d 7e9b 033e 0c34 d300 7781 243e
00000260: 60ea c900 4a01 5727 f806 6ebe f105 a93d
00000270: ed3d 373e 3a08 07bc 268f d616 5a48 263d
00000280: 5101 7a3e 45ae 1c3d 78c1 01be f08b c1bc
00000290: 90ce 4c3e 5509 b800 2a73 9a81 10f6 c53a
000002a0: 1d18 7300 7055 863d d8fe aea0 c47c 913e
000002b0: 0e3d dcaa 5791 533d b08c 9fbb f519 8ab4
000002c0: 5063 dc3e c735 3634 9141 47bd 25f2 62bd
000002d0: ffe2 a2bc 30ba 973b fe63 083d 8bb0 4ebc
000002e0: c190 f93d bd58 a13c 82fc 2034 1c46 51bd
000002f0: a8ca 15be b1c1 2000 0b3c cf3c 74c1 23be
00000300: 4678 60bd d3cb 4e80 5f78 c425 895e 8a3c
00000310: 29e9 4a3d 6416 203e 4eff 413b 7ad2 16bb
00000320: c65d d2bc 2f09 8780 6afc 9d3e 67de 1a3e
00000330: 3a0e 872b 367c 08bd a28d 253c 1a7f 6700
00000340: af67 eeba 1845 cd3c 1b44 3dbe 81e8 4fbe
00000350: 5b48 1f3e 8a9b 6a3e e93b a93d 643c 8c3e
00000360: 29d8 2a84 622e 8620 e3d8 12bd 193c 053e
00000370: feea 13bd 1aeb 80be 9ab1 db95 e010 d83b
00000380: 9ca7 cd3e 3f38 c83d e188 13bc 3240 e1bd
00000390: 3ad1 25be 4c67 9800 ff89 4e80 b9f9 43bc
000003a0: 3f83 3180 14b4 813d 873a 1300 251d d73d
000003b0: 04ad a037 dea1 1a3e d648 abbc 849a c036
000003c0: f08d bd3d 1b5b e92d aa5a d0bd e1c6 0cbe
000003d0: cf49 493e 4ece 9abc 4023 723d 0c7a 9cbb
000003e0: 73bb 5ebe 7dc0 59bc 06cb 10b6 bfe3 2cbc
000003f0: a074 b3be c259 4600 11ea 62bd 3de1 263d

decoder.4.bias f4 [128]
0.18199356 -0.026388222 0.20256346 0.27703384 3.6767338e-25 0.0150865195 -0.07947768 1.3648166e-38
-6.3302234e-38 0.056716207 -0.22082983 0.06927377 0.062870145 -8.3161495e-08 0.08066166 0.007559195
0.23148729 0.29412985 0.09375818 0.101309545 -2.0610222e-31 -1.4902081e-14 -0.012494479 -2.2970223e-38
-1.8916142e-32 0.119767435 -8.068191e-21 0.049277265 0.2626383 -1.35037194e-14 -0.16568395 0.07864681
0.14001885 -1.5477524e-38 -2.817615e-08 0.13333745 0.16971985 0.121779814 -0.027877962 0.3968968
0.089470856 -8.3597115e-11 0.049747907 0.07476435 -0.016515033 0.079136536 -2.2104755e-38 -0.0357444
0.07099756 -1.6918216e-13 -3.982496e-38 -0.030012261 0.061973464 -1.4275254e-06 -0.082603745 0.2169988
-6.5930883e-09 0.31698325 0.20539682 0.2743271 -0.0016048392 -0.01732781 0.14559624 -0.028898796
0.05858995 0.14869401 0.2495908 -2.6896937e-06 0.16576916 0.11467024 0.2520897 -0.0021711283
-5.451091e-35 0.06096832 -0.0062038098 0.017455108 -0.089994684 0.050369255 -0.07893008 -0.004809496
0.2972268 -8.459215e-09 0.0056591365 -1.72856e-39 -0.08811506 -0.051258422 -0.044035822 -4.7045896e-13
-0.045070834 -1.3346893e-38 0.0857486 -6.192635e-38 0.18968883 -0.005541386 0.09598675 0.051944334
-2.8838771e-09 -6.5432096e-38 0.044707615 -0.0017998735 0.16011192 -0.044140022 -0.1309837 -0.104509406
0.21473561 -4.891515e-38 0.017903354 -2.4163532e-07 0.25466976 2.627486e-39 0.23665752 -0.43067735
5.7331863e-34 0.22760174 -0.2465872 0.17535765 0.015449915 -1.3863892e-05 0.056875624 -0.005560832
0.22070664 0.09075632 -0.20131418 0.23764353 0.31922686 -0.08047787 0.3339249 0.016608357
00000000: 855c 3a3e 1d2c d8bc cc6c 4f3e 61d7 8d3e
00000010: 2c94 e316 732d 773c 32c5 a2bd 899d 9400
00000020: 3853 ac81 414f 683d 3721 62be 68df 8d3d
00000030: 10c2 803d 8496 b2b3 f131 a53d 20b3 f73b
00000040: 010b 6d3e 3098 963e 4a04 c03d 617b cf3d
00000050: 9bc4 858c dc39 86a8 a5b5 4cbc a31f fa80
00000060: bb6f c48a a148 f53d 6167 189e f5d6 493d
00000070: 8778 863e ea42 73a8 0ea9 29be 9411 a13d
00000080: 1a61 0f3e 0a89 a880 0208 f2b2 9d89 083e
00000090: 0acb 2d3e b267 f93d 5360 e4bc 0f36 cb3e
000000a0: 7f3c b73d fed4 b7ae 76c4 4b3d 0d1e 993d
000000b0: 894a 87bc 5612 a23d 10b3 f080 b868 12bd
000000c0: 2b67 913d 707b 3eaa e5d3 5881 46dc f5bc
000000d0: e3d7 7d3d 6699 bfb5 272c a9bd ef34 5e3e
000000e0: 6b89 e2b1 a14b a23e 8b53 523e 9a74 8c3e
000000f0: 7859 d2ba 0df3 8dbc 2e17 153e 2bbd ecbc
00000100: 04fc 6f3d 3e43 183e bb94 7f3e 9680 34b6
00000110: 64bf 293e 3bd8 ea3d e711 813e 7d49 0ebb
00000120: 34ea 9086 ebb9 793d 5449 cbbb 04fe 8e3c
00000130: 224f b8bd fe4f 4e3d 18a6 a1bd fa98 9dbb
00000140: 1c2e 983e 0554 11b2 4770 b93b 86d2 1280
00000150: ab75 b4bd 5af4 51bd e85e 34bd 246c 04ab
00000160: 329c 38bd b555 9180 f69c af3d 5e94 a881
00000170: ca3d 423e 8494 b5bb b494 c43d 95c3 543d
00000180: b42d 46b1 841f b281 551f 373d bce9 ebba
00000190: 61f4 233e 2bcc 34bd 9720 06be 0709 d6bd
000001a0: a7e3 5b3e e228 8581 0eaa 923c 1bba 81b4
000001b0: 1364 823e 5d9c 1c00 5956 723e be81 dcbe
000001c0: 8e84 3e08 6e10 693e 5b81 7cbe f590 333e
000001d0: a421 7d3c f698 68b7 6af6 683d a437 b6bb
000001e0: ec00 623e 73de b93d 4e25 4ebe d358 733e
000001f0: b471 a33e 95d1 a4bd 34f8 aa3e 400e 883c
